Torch summary
Running torch model on: cpu
===============================================================================================
Layer (type:depth-idx)                        Output Shape              Param #
===============================================================================================
EfficientNet                                  [32, 15]                  --
├─Conv2dSame: 1-1                             [32, 48, 190, 190]        1,296
├─BatchNormAct2d: 1-2                         [32, 48, 190, 190]        96
│    └─Dropout2d: 2-1                         [32, 48, 190, 190]        --
│    └─SiLU: 2-2                              [32, 48, 190, 190]        --
├─Sequential: 1-3                             [32, 448, 12, 12]         --
│    └─Sequential: 2-3                        [32, 24, 190, 190]        --
│    │    └─DepthwiseSeparableConv: 3-1       [32, 24, 190, 190]        2,940
│    │    └─DepthwiseSeparableConv: 3-2       [32, 24, 190, 190]        1,206
│    └─Sequential: 2-4                        [32, 32, 95, 95]          --
│    │    └─InvertedResidual: 3-3             [32, 32, 95, 95]          11,878
│    │    └─InvertedResidual: 3-4             [32, 32, 95, 95]          18,120
│    │    └─InvertedResidual: 3-5             [32, 32, 95, 95]          18,120
│    │    └─InvertedResidual: 3-6             [32, 32, 95, 95]          18,120
│    └─Sequential: 2-5                        [32, 56, 48, 48]          --
│    │    └─InvertedResidual: 3-7             [32, 56, 48, 48]          25,848
│    │    └─InvertedResidual: 3-8             [32, 56, 48, 48]          57,246
│    │    └─InvertedResidual: 3-9             [32, 56, 48, 48]          57,246
│    │    └─InvertedResidual: 3-10            [32, 56, 48, 48]          57,246
│    └─Sequential: 2-6                        [32, 112, 24, 24]         --
│    │    └─InvertedResidual: 3-11            [32, 112, 24, 24]         70,798
│    │    └─InvertedResidual: 3-12            [32, 112, 24, 24]         197,820
│    │    └─InvertedResidual: 3-13            [32, 112, 24, 24]         197,820
│    │    └─InvertedResidual: 3-14            [32, 112, 24, 24]         197,820
│    │    └─InvertedResidual: 3-15            [32, 112, 24, 24]         197,820
│    │    └─InvertedResidual: 3-16            [32, 112, 24, 24]         197,820
│    └─Sequential: 2-7                        [32, 160, 24, 24]         --
│    │    └─InvertedResidual: 3-17            [32, 160, 24, 24]         240,924
│    │    └─InvertedResidual: 3-18            [32, 160, 24, 24]         413,160
│    │    └─InvertedResidual: 3-19            [32, 160, 24, 24]         413,160
│    │    └─InvertedResidual: 3-20            [32, 160, 24, 24]         413,160
│    │    └─InvertedResidual: 3-21            [32, 160, 24, 24]         413,160
│    │    └─InvertedResidual: 3-22            [32, 160, 24, 24]         413,160
│    └─Sequential: 2-8                        [32, 272, 12, 12]         --
│    │    └─InvertedResidual: 3-23            [32, 272, 12, 12]         520,904
│    │    └─InvertedResidual: 3-24            [32, 272, 12, 12]         1,159,332
│    │    └─InvertedResidual: 3-25            [32, 272, 12, 12]         1,159,332
│    │    └─InvertedResidual: 3-26            [32, 272, 12, 12]         1,159,332
│    │    └─InvertedResidual: 3-27            [32, 272, 12, 12]         1,159,332
│    │    └─InvertedResidual: 3-28            [32, 272, 12, 12]         1,159,332
│    │    └─InvertedResidual: 3-29            [32, 272, 12, 12]         1,159,332
│    │    └─InvertedResidual: 3-30            [32, 272, 12, 12]         1,159,332
│    └─Sequential: 2-9                        [32, 448, 12, 12]         --
│    │    └─InvertedResidual: 3-31            [32, 448, 12, 12]         1,420,804
│    │    └─InvertedResidual: 3-32            [32, 448, 12, 12]         3,049,200
├─Conv2d: 1-4                                 [32, 1792, 12, 12]        802,816
├─BatchNormAct2d: 1-5                         [32, 1792, 12, 12]        3,584
│    └─Dropout2d: 2-10                        [32, 1792, 12, 12]        --
│    └─SiLU: 2-11                             [32, 1792, 12, 12]        --
├─SelectAdaptivePool2d: 1-6                   [32, 1792]                --
│    └─AdaptiveAvgPool2d: 2-12                [32, 1792, 1, 1]          --
│    └─Flatten: 2-13                          [32, 1792]                --
├─Linear: 1-7                                 [32, 15]                  26,895
===============================================================================================
Total params: 17,575,511
Trainable params: 17,575,511
Non-trainable params: 0
Total mult-adds (Units.GIGABYTES): 140.55
===============================================================================================
Input size (MB): 55.45
Forward/backward pass size (MB): 12668.94
Params size (MB): 69.80
…
